voxnet.onnx (onnx, 633394 bytes, 10 tensors)

conv.conv3d_1.weight f4 [32, 1, 5, 5, 5]
-0.100689985 -0.126441 -0.13417977 -0.17865743 0.26682085 -0.09043096 -0.07614893 0.0030312296
-0.19803773 -0.13841714 -0.03861086 -0.12574676 -0.12851526 -0.06447454 0.38789752 0.0755674
0.07622794 -0.09056556 -0.1045352 -0.17157032 0.014074565 -0.08646974 -0.0061360365 0.1672995
0.061611827 -0.12100858 0.031357996 0.120271444 0.22358494 -0.045036506 -0.028607853 0.048172757
0.060590286 -0.025912963 -0.22347337 -0.080625124 0.030212827 0.07307851 0.08830892 0.04219412
0.048648875 -0.010986359 0.104169905 -0.09029932 -0.09683424 0.017433628 -0.11256403 -0.033330258
0.16876505 -0.22838335 0.14610702 -0.07516712 0.11780485 0.0022011136 -0.15345532 0.040819522
-0.088954434 -0.058056075 -0.031096343 0.019856496 0.03982661 -0.04670667 0.16349475 -0.054173123
-0.20624001 -0.028405199 0.05509978 0.08457985 0.113696136 -0.12518667 -0.08067071 0.013885361
0.015931327 0.05736845 0.1365505 -0.046423763 0.07503943 -0.05219183 -0.17064616 -0.17476277
0.023241099 -0.06598015 -0.014871345 -0.13082637 -0.11240238 0.015623032 -0.034190588 0.092343874
-0.10337964 -0.32369965 0.046117514 0.13669358 -0.041172452 0.009837685 0.04366832 -0.057000652
-0.022656642 -0.057729498 -0.14003049 -0.0035114917 0.013843221 0.03211314 -0.08800189 -0.15456814
-0.14274171 -0.14198364 -0.06560123 0.012878574 -0.18016092 -0.15169035 0.08942406 0.042606533
-0.049610496 -0.14400518 -0.23267193 -0.11153273 0.03104682 -0.061057318 0.07745621 0.116844036
0.055799674 0.06040655 -0.028731326 -0.22629833 0.013220472 0.0490494 0.0730898 -0.01709058
-0.013249462 0.08906048 0.025545422 -0.033201057 -0.021230804 -0.02474783 -0.018833375 -0.035688926
0.043070298 0.12669797 0.052864958 0.017912863 0.015277014 0.03959716 -0.034810334 0.035435025
0.10085371 -0.058649443 -0.12582766 -0.059320007 0.01044656 0.026099056 -0.1087126 -0.09954094
-0.09146031 -0.08063523 0.029367704 -0.054926667 0.004677857 0.018311545 -0.014410207 -0.056226127
0.10980782 -0.041919038 0.076866575 0.09570698 0.074892856 7.2803115e-05 -0.03131902 0.11202363
0.07945584 -0.055674177 -0.14267522 0.038960475 -0.050813466 -0.06399584 0.048638146 0.034627184
-0.043731626 -0.0808016 -0.06568958 -0.21357489 0.02680361 -0.046378337 -0.072417796 -0.12474039
0.059508774 0.037107468 0.021739934 0.13032895 0.037284356 0.034258198 0.06136136 0.08581061
-0.008211032 0.029874595 0.10160722 -0.08167037 0.011181352 -0.028344443 0.08173699 0.057132866
-0.12032934 -0.001095908 -0.08932356 -0.11527917 -0.15256265 0.0970937 0.005602483 -0.10456751
-0.078446634 -0.00532219 0.064915664 0.10733936 0.08085608 -0.06381852 -0.15795106 -0.08398217
0.09691438 0.015168571 0.0532357 0.097739205 0.065730594 0.016448716 0.08261135 0.15814647
0.13559487 -0.053819098 -0.12525795 0.033556823 0.02707754 -0.109846696 0.025466003 -0.04593207
0.037116785 -0.13076931 -0.0054013487 -0.0817351 0.036957566 -0.0700306 -0.092868455 -0.20579572
0.08584695 0.0038161827 0.036308397 -0.085467376 -0.082131244 -0.04586742 -0.064141594 -0.06877561
0.06463187 -0.08155509 0.045514464 -0.010911674 -0.00439581 -0.119796984 -0.07828073 -0.0763733
00000000: 8d36 cebd c079 01be 6c66 09be f9f1 36be
00000010: be9c 883e de33 b9bd f8f3 9bbd 98a7 463b
00000020: 67ca 4abe 39bd 0dbe 6c26 1ebd c2c3 00be
00000030: 8199 03be 3a0b 84bd 819a c63e 15c3 9a3d
00000040: 651d 9c3d 707a b9bd 8d16 d6bd 21b0 2fbe
00000050: 0199 663c 0c17 b1bd ce10 c9bb 8f50 2b3e
00000060: af5c 7c3d 59d3 f7bd 3e71 003d e050 f63d
00000070: 73f3 643e 3378 38bd 045b eabc cc50 453d
00000080: 852d 783d 6c47 d4bc 34d6 64be c91e a5bd
00000090: e480 f73c 30aa 953d 4fdb b43d bed3 2c3d
000000a0: 0b44 473d 2100 34bc 0857 d53d daee b8bd
000000b0: 0851 c6bd f8d0 8e3c f887 e6bd 4f85 08bd
000000c0: bfd0 2c3e 53dd 69be 149d 153e 38f1 99bd
000000d0: ab43 f13d 8f40 103b 6423 1dbe 5f32 273d
000000e0: be2d b6bd 35cc 6dbd c2bd febc 17aa a23c
000000f0: 3a21 233d 7e4f 3fbd 2b6b 273e a3e4 5dbd
00000100: 9530 53be 05b2 e8bc 4fb0 613d 3338 ad3d
00000110: 85d9 e83d ef30 00be af36 a5bd 6d7f 633c
00000120: 6a82 823c 2efb 6a3d e5d3 0b3e d826 3ebd
00000130: 46ae 993d 1ac7 55bd debd 2ebe 03f5 32be
00000140: 1e64 be3c 9a20 87bd f1a6 73bc 59f7 05be
00000150: 3833 e6bd bff7 7f3c 6e0b 0cbd c91e bd3d
00000160: b4b8 d3bd f6bb a5be b8e5 3c3d 67f9 0b3e
00000170: 72a4 28bd 3e2e 213c 8ddd 323d 8479 69bd
00000180: 6c9a b9bc c475 6cbd 2764 0fbe 0e21 66bb
00000190: adce 623c 1189 033d 563a b4bd 1c47 1ebe
000001a0: e22a 12be 2964 11be f059 86bd a800 533c
000001b0: 1b7c 38be b754 1bbe f623 b73d 3084 2e3d
000001c0: 6034 4bbd 1876 13be 8d41 6ebe 466b e4bd
000001d0: e755 fe3c 3d17 7abd 5da1 9e3d ed4b ef3d
000001e0: 338e 643d dc6c 773d f55d ebbc c0ba 67be
000001f0: ae9a 583c 06e8 483d 1bb0 953d 8b01 8cbc
00000200: 4514 59bc 5765 b63d a244 d13c d5fd 07bd
00000210: 39ec adbc f6bb cabc 7348 9abc 8d2e 12bd
00000220: 7b6a 303d 1dbd 013e ed88 583d ffbd 923c
00000230: 714c 7a3c a230 223d 4895 0ebd 5124 113d
00000240: 648c ce3d 663a 70bd f7d8 00be 89f9 72bd
00000250: 0c28 2b3c b0cd d53c b6a4 debd 1fdc cbbd
00000260: 8b4f bbbd 1524 a5bd 8a94 f03c c9fa 60bd
00000270: b548 993b 1802 963c ca18 6cbc 5e4d 66bd
00000280: ece2 e03d 4cb3 2bbd 396c 9d3d 0502 c43d
00000290: 6d61 993d e0ad 9838 5f48 00bd a56c e53d
000002a0: beb9 a23d 9b0a 64bd 7419 12be 0595 1f3d
000002b0: c821 50bd 4010 83bd cb38 473d 3cd5 0d3d
000002c0: ef1f 33bd 4f7b a5bd 4288 86bd 60b3 5abe
000002d0: 3f93 db3c 36f7 3dbd c84f 94bd e477 ffbd
000002e0: 79bf 733d 00fe 173d f217 b23c f474 053e
000002f0: 7bb7 183d 5352 0c3d 0d56 7b3d 79bd af3d
00000300: 9087 06bc 91bb f43c 7217 d03d cc42 a7bd
00000310: fd31 373c 9b32 e8bc b965 a73d 2704 6a3d
00000320: 3b6f f6bd 92a4 8fba 45ef b6bd 7c17 ecbd
00000330: 6239 1cbe 10d9 c63d 0995 b73b 7e27 d6bd
00000340: a1a8 a0bd c465 aebb 81f2 843d bdd4 db3d
00000350: df97 a53d 49b3 82bd ecbd 21be d8fe abbd
00000360: 0c7b c63d 9985 783c ad0d 5a3d 7e2b c83d
00000370: c39d 863d 75bf 863c 2430 a93d 26f1 213e
00000380: 62d9 0a3e 6a71 5cbd 9f43 00be e172 093d
00000390: b8d1 dd3c 4ef7 e0bd 149e d03c 4423 3cbd
000003a0: c507 183d 64e8 05be ccfd b0bb bb64 a7bd
000003b0: d160 173d 346c 8fbd d131 bebd 1dbc 52be
000003c0: 87d0 af3d ec18 7a3b 1db8 143d 8509 afbd
000003d0: 6d34 a8bd 7adf 3bbd ab5c 83bd 3ada 8cbd
000003e0: b75d 843d 5b06 a7bd 606d 3a3d e1c6 32bc
000003f0: ba0a 90bb 1f58 f5bd a651 a0bd 9b69 9cbd

conv.conv3d_1.bias f4 [32]
-0.004213915 -0.0218787 -0.0014527855 -0.13451734 -0.021320507 -0.00754223 0.018384974 -0.0015815359
-0.06905031 -0.07961581 0.011162422 -0.0012525312 -0.002799481 -0.0028668325 -0.024800306 -0.11704624
-0.010299258 -0.0054072225 -0.013369873 0.0016547454 -0.0019130283 -0.0042586075 -0.012781527 -0.0025190879
-0.012855173 -0.13364938 -0.07928813 -0.0063301115 -0.015505316 -0.006725173 -0.0040823175 -0.009353044
00000000: e214 8abb f63a b3bc 646b beba eabe 09be
00000010: 58a8 aebc d024 f7bb 169c 963c 8a4b cfba
00000020: 406a 8dbd 9d0d a3bd 97e2 363c f92b a4ba
00000030: 7f77 37bb 78e1 3bbb 032a cbbc f0b5 efbd
00000040: 38be 28bc 122f b1bb 500d 5bbc 0be4 d83a
00000050: 94be faba ca8b 8bbb 9c69 51bc 4817 25bb
00000060: 819e 52bc 62db 08be d161 a2bd d36c cfbb
00000070: 020a 7ebc d75e dcbb f6c4 85bb 833d 19bc

conv.conv3d_2.weight f4 [32, 32, 3, 3, 3]
0.059418205 0.046967957 -0.061745133 0.032454763 0.00706484 0.029770887 -0.05173903 0.017699337
0.017297043 -0.0972769 0.018909438 -0.048826125 -0.0028796182 0.020303287 -0.005209413 -0.06173045
0.017446471 -0.01266053 -0.079542935 0.01763789 -0.08048539 0.010273185 0.03719765 -0.0593061
0.0062033823 0.027500143 0.07921655 0.011862485 0.041919366 -0.06784107 0.07361023 0.038497504
-0.022066204 -0.029981596 -0.010749266 -0.05434245 -0.035719268 7.643725e-05 -0.06438527 0.031078162
0.00408587 0.044714227 -0.12930867 0.010258256 -0.05413982 -0.09289216 -0.06750288 -0.1604164
-0.037067857 -0.025904654 -0.004187553 -0.11565826 -0.054883473 -0.14456622 -0.05469489 0.009510132
0.010312988 -0.055694625 0.05642878 -0.028273528 -0.018195612 -0.006355878 -0.0038686665 -0.023315394
0.0040951613 -0.010963559 -0.028475305 0.06564522 -0.030311806 -0.04674241 -0.0024551488 -0.021083035
-0.0730289 -0.023557773 0.028343836 -0.0697116 -0.011633661 0.07791612 -0.05958935 0.077095464
-0.021131596 0.015245703 -0.045644097 0.0007069167 -0.020595903 0.004341334 -0.00119436 0.07744102
-0.007805033 -0.046547044 0.01798781 -0.050234746 -0.06605383 0.0030072955 0.016623178 -0.08508864
0.060227815 -0.0460051 -0.164489 -0.021811226 -0.0472014 -0.077056624 -0.012401833 -0.043802917
-0.02108949 0.037397124 0.0012342352 -0.110120445 0.08349482 0.0010835492 -0.08749044 0.06979736
0.0864587 -0.107761934 0.0411779 0.040050074 -0.055600643 0.079563566 0.021612264 -0.07274476
0.054629367 0.1126436 -0.06339504 0.020870239 0.046755563 -0.00485779 0.048030555 0.028255856
0.02236627 0.030003514 0.07456905 0.043149862 0.056916676 0.06331957 0.0014785202 0.030611753
0.027004264 0.014560652 0.014869361 0.02645429 0.0053248666 0.04141986 0.024439482 -0.03253236
-0.03635187 0.044253107 -0.053427823 -0.021135785 -0.005747567 -0.10182387 0.06249457 0.054853663
-0.07422384 -0.034962524 -0.0037293902 0.0053407014 -0.051440164 0.04022744 -0.046224445 0.0047318214
-0.009264869 -0.044593226 -0.051545475 -0.042925593 -0.031982362 -0.09628167 -0.015788935 -0.0042818286
-0.119066976 -0.019764744 -0.058402766 -0.055462606 -0.010270811 -0.06266513 -0.003958319 -0.11148442
0.029017098 -0.09407949 -0.0045757443 -0.0075349878 0.034873176 0.04424165 0.009529155 0.011536093
-0.03944677 0.03218315 -0.015158546 0.044375643 0.07017675 -0.054235913 0.079430945 -0.06497961
-0.009893217 0.07315286 -0.014626665 -0.044219 -0.043983813 -0.016060624 -0.063362956 0.042324863
-0.06895548 -0.01343175 0.12036782 -0.0010000396 -0.12667686 -0.0017620174 0.011571362 -0.04845556
0.06289715 -0.14233413 -0.024479963 0.07211795 -0.032948293 -0.013442836 -0.06312148 -0.11349718
0.060174868 -0.066421084 -0.033747606 0.01113742 0.011040574 -0.028099809 -0.043207344 -0.0074718003
-0.10767311 0.07327295 0.0036545082 -0.014337615 -0.027280603 -0.006606027 -0.046710398 0.00888922
0.02840718 -0.033624534 -0.0016554062 -0.06784767 0.009878824 0.01089679 -0.040107355 0.041667424
-0.024380025 0.0005765883 -0.025746481 0.042329624 -0.031961486 -0.082831286 0.012880882 0.019297149
0.026110599 0.061688744 -0.04148459 -0.07846024 -0.018781971 -0.035238273 -0.046016917 0.00804669
00000000: 8160 733d 7961 403d 77e8 7cbd 49ef 043d
00000010: 2c80 e73b 13e2 f33c 4eec 53bd 33fe 903c
00000020: 87b2 8d3c 1d39 c7bd f7e7 9a3c e7fd 47bd
00000030: fab7 3cbb 1453 a63c b9b3 aabb 11d9 7cbd
00000040: e7eb 8e3c 1d6e 4fbc 68e7 a2bd 567d 903c
00000050: 86d5 a4bd dc50 283c 905c 183d f4ea 72bd
00000060: be45 cb3b fb47 e13c 493c a23d de5a 423c
00000070: a4b3 2b3d 42f0 8abd f6c0 963d 8faf 1d3d
00000080: 2fc4 b4bc f79b f5bc b01d 30bc 3096 5ebd
00000090: 5e4e 12bd f04c a038 6ddc 83bd a197 fe3c
000000a0: c3e2 853b 4426 373d 7e69 04be 3f12 283c
000000b0: b7c1 5dbd 3f3e bebd f33e 8abd 3244 24be
000000c0: 77d4 17bd ff35 d4bc be37 89bb 3dde ecbd
000000d0: 7ecd 60bd 2b09 14be c007 60bd 62d0 1b3c
000000e0: cff7 283c 0c20 64bd dd21 673d e39d e7bc
000000f0: f70e 95bc f844 d0bb 7489 7dbb edff bebc
00000100: b430 863b 80a0 33bc 0b45 e9bc 0071 863d
00000110: 7750 f8bc f874 3fbd 90e6 20bb 54b6 acbc
00000120: 2d90 95bd 3bfc c0bc 5531 e83c f5c4 8ebd
00000130: 1c9b 3ebc 7d92 9f3d f613 74bd 3ae4 9d3d
00000140: 2b1c adbc 1dc9 793c 4ef5 3abd 6050 393a
00000150: bdb8 a8bc c041 8e3b 128c 9cba 6699 9e3d
00000160: 5dc1 ffbb 1da8 3ebd 2c5b 933c f3c2 4dbd
00000170: 3b47 87bd 0c16 453b 552d 883c f442 aebd
00000180: 71b1 763d d86f 3cbd ce6f 28be 75ad b2bc
00000190: 4156 41bd ddcf 9dbd 0f31 4bbc b06a 33bd
000001a0: dec3 acbc ba2d 193d 10c6 a13a d486 e1bd
000001b0: 55ff aa3d e105 8e3a 302e b3bd ebf1 8e3d
000001c0: 4211 b13d 4ab2 dcbd 28aa 283d 8c0b 243d
000001d0: 80bd 63bd 39f2 a23d 340c b13c 34fb 94bd
000001e0: 0bc3 5f3d b0b1 e63d 42d5 81bd 10f8 aa3c
000001f0: c382 3f3d 192e 9fbb b0bb 443d d378 e73c
00000200: 7839 b73c eec9 f53c a8b7 983d e9bd 303d
00000210: 7621 693d b1ad 813d e8ca c13a 80c5 fa3c
00000220: 0c38 dd3c cd8f 6e3c 9f9e 733c abb6 d83c
00000230: 387c ae3b dfa7 293d 4f35 c83c a740 05bd
00000240: b3e5 14bd bf42 353d 22d7 5abd f424 adbc
00000250: 1656 bcbb 0889 d0bd 4efa 7f3d 3cae 603d
00000260: ab02 98bd dd34 0fbd c968 74bb 0d01 af3b
00000270: ecb2 52bd 87c5 243d d855 3dbd 650d 9b3b
00000280: adcb 17bc 63a7 36bd 5921 53bd bfd2 2fbd
00000290: f0ff 02bd 532f c5bd cc57 81bc 954e 8cbb
000002a0: 63d9 f3bd ace9 a1bc bd37 6fbd c22c 63bd
000002b0: e746 28bc 9356 80bd c9b4 81bb f251 e4bd
000002c0: 44b5 ed3c bfac c0bd 20f0 95bb 0fe8 f6bb
000002d0: 2dd7 0e3d bb36 353d 2c20 1c3c e201 3d3c
000002e0: f092 21bd 7bd2 033d 8d5b 78bc 3cc3 353d
000002f0: d4b8 8f3d 7a26 5ebd b1ac a23d 0814 85bd
00000300: 2917 22bc 2bd1 953d aea4 6fbc fb1e 35bd
00000310: 5f28 34bd 9291 83bc 70c4 81bd d65c 2d3d
00000320: 8838 8dbd d810 5cbc 6783 f63d c313 83ba
00000330: 94b7 01be 7ef3 e6ba cf95 3d3c 5679 46bd
00000340: 39d0 803d 0ac0 11be 348a c8bc 93b2 933d
00000350: caf4 06bd 573f 5cbc d645 81bd 3671 e8bd
00000360: ec79 763d c707 88bd ee3a 0abd ba79 363c
00000370: 86e3 343c 9231 e6bc 2ffa 30bd 01d6 f4bb
00000380: b883 dcbd 2110 963d 7980 6f3b 51e8 6abc
00000390: 927b dfbc 5f77 d8bb 6753 3fbd 17a4 113c
000003a0: 2db6 e83c e1b9 09bd 37fa d8ba b8f3 8abd
000003b0: cbda 213c 7388 323c 9c47 24bd 76ab 2a3d
000003c0: 9eb8 c7bc 3026 173a 49ea d2bc d461 2d3d
000003d0: 0cea 02bd 73a3 a9bd 560a 533c 0e15 9e3c
000003e0: e5e5 d53c 56ad 7c3d bfeb 29bd c3af a0bd
000003f0: a6dc 99bc 0256 10bd 3c7c 3cbd 44d6 033c

conv.conv3d_2.bias f4 [32]
-0.06467088 -0.010374633 -0.012943554 -0.04005027 -0.004621757 -0.036608152 -0.0031971543 0.038439002
-0.02493718 -0.007062642 -0.028115638 -0.0201406 -0.013094902 -0.016123798 -0.01359673 -0.08005459
-0.036149975 -0.007660038 -0.0278848 -0.03650577 -0.0012984973 -0.015340751 -0.0064779175 -0.022099081
0.0026575224 -0.03428203 -0.014965185 -0.018791946 0.006504163 -0.075518034 -0.015300153 -0.006285254
00000000: 2b72 84bd 5dfa 29bc 3311 54bc c00b 24bd
00000010: 1c72 97bb 6ef2 15bd 5987 51bb 3772 1d3d
00000020: 0f49 ccbc bc6d e7bb c452 e6bc e6fd a4bc
00000030: 008c 56bc 0e16 84bc d2c4 5ebc a9f3 a3bd
00000040: ff11 14bd 0e01 fbbb aa6e e4bc 1387 15bd
00000050: 5732 aaba c657 7bbc b644 d4bb 2209 b5bc
00000060: d429 2e3b 506b 0cbd 8930 75bc 91f1 99bc
00000070: e020 d53b 33a9 9abd 7ead 7abc 88f4 cdbb

conv.conv3d_3.weight f4 [64, 32, 3, 3, 3]
0.045886874 0.03768279 -0.022147331 -0.019075936 -0.05085415 -0.018135231 -0.010440575 -0.018548284
0.118381284 -0.008441598 0.045898758 0.023143277 -0.07701516 0.0049588727 0.055259332 -0.13921605
-0.024605958 -0.023644648 -0.04547141 -0.039046105 0.071754254 -0.06382926 -0.028021093 -0.029266655
-0.132203 -0.11567302 0.032979302 -0.03471463 -0.0073306845 0.0034614627 -0.056320667 -0.07774282
-0.014327249 -0.0050072432 -0.027956568 -0.024137247 0.023562696 0.060967628 0.07949054 -0.030656919
-0.010885095 0.043014053 -0.038137853 0.0030203229 -0.010481699 0.026083285 -0.05647053 0.008590442
-0.054741945 0.019578546 -0.027139967 -0.11226122 0.009992339 -0.018837977 0.03363546 0.06621212
-0.04785435 0.011153426 0.0022403507 -0.09656726 -0.069633976 -0.1445529 -0.046576776 0.15760444
0.021810409 0.011504904 -0.01764926 0.042176735 0.026249768 -0.06835171 -0.07757449 -0.0755172
-0.03448814 0.064533316 -0.01590781 0.048083585 0.077765204 0.027737865 -0.048476595 -0.08486822
-0.03443938 0.17845748 0.14546393 0.06437374 0.06857283 0.061983876 0.07389763 -0.011875746
-0.042034306 -0.024512216 0.17196617 0.03230632 0.0150338095 0.012585791 0.026209673 0.054479625
-0.08063748 -0.11200901 0.09713827 0.004766158 0.18247604 -0.04454565 -0.03450171 0.0150291845
0.013230486 -0.19311929 -0.20999372 0.0058064424 -0.022854462 0.07282036 -0.001443191 -0.0010297067
0.08227012 0.05623584 -0.01735427 -0.1232831 -0.022517052 -0.010130685 0.0385832 0.04334573
0.032795783 0.022988623 -0.00153381 -0.060607444 -0.02363713 0.03014467 0.039437234 0.07169001
0.024220824 0.06583812 0.10004358 0.060431834 -0.038388062 -0.048616737 -0.06755995 -0.06652398
-0.047435913 -0.058154553 0.05086733 -0.07577952 -0.081448495 0.0059462097 -0.07445857 0.0052645304
0.00584554 -0.00394278 -0.0064646513 -0.048523318 -0.055155754 0.007289094 -0.16238293 -0.035826858
0.031053025 -0.076296456 -0.048533294 -0.020145973 -0.12519512 -0.11210834 -0.07281722 -0.1746232
-0.09964333 -0.0035163215 0.023713173 -0.007854906 0.015572641 0.038312837 0.07957308 0.031228459
-0.05013245 -0.054085083 -0.20388368 0.022432404 -0.020460391 0.040837448 -0.14007658 0.057079922
-0.011202357 -0.15354428 -0.0440678 -0.10763361 -0.0040924135 -0.020207614 0.03275102 -0.05913385
-0.08252844 0.019248756 -0.09919681 -0.045716446 -0.12839301 0.013837798 -0.11189816 -0.021274101
-0.07408584 -0.07950003 -0.046098366 -0.09500662 -0.1319167 -0.089391604 0.023304 -0.07066294
-0.0960348 -0.010544432 -0.032068428 -0.044471573 -0.12732525 -0.022397624 -0.08027168 -0.026244262
-0.033623647 -0.057906784 -0.007004732 0.03684048 0.040944822 -0.077803865 -0.05948554 -0.08450463
0.0726478 0.063660376 -0.048536047 -0.0057762335 0.024388397 -0.0065117916 -0.05982106 0.031891804
0.036053028 -0.013355655 0.04424257 -0.06145357 0.051633947 0.036576018 0.044733666 -0.105360836
-0.08072496 -0.032313447 0.00083088485 0.028856749 -0.078248076 -0.03711499 -0.008632226 0.02243072
-0.15288551 -0.105867155 -0.020107426 0.047546566 -0.040359545 -0.002437991 0.02650397 0.020679584
0.028982388 0.07316171 -0.033277795 -0.044693578 0.06481626 -0.0883667 -0.021179697 0.050114848
00000000: e0f3 3b3d 4559 1a3d 526e b5bc 2345 9cbc
00000010: 714c 50bd 5690 94bc f20e 2bbc 92f2 97bc
00000020: e371 f23d a14e 0abc 5600 3c3d f896 bd3c
00000030: 20ba 9dbd 0a7e a23b 9c57 623d a78e 0ebe
00000040: 6f92 c9bc 6cb2 c1bc 3b40 3abd cfee 1fbd
00000050: e5f3 923d eab8 82bd 7e8c e5bc a0c0 efbc
00000060: 3960 07be fae5 ecbd 4e15 073d ee30 0ebd
00000070: 3d36 f0bb b5d9 623b 80b0 66bd a137 9fbd
00000080: d6bc 6abc cd13 a4bb 2c05 e5bc 7abb c5bc
00000090: 8e06 c13c 31b9 793d f0cb a23d 3824 fbbc
000000a0: 6657 32bc 812f 303d 7036 1cbd 9cf0 453b
000000b0: 6fbb 2bbc 9dac d53c a44d 67bd edbe 0c3c
000000c0: 1739 60bd 3063 a03c a354 debc 36e9 e5bd
000000d0: e8b6 233c 1a52 9abc 56c5 093d 389a 873d
000000e0: ec02 44bd dcbc 363c d9d2 123b 0ec5 c5bd
000000f0: 429c 8ebd ad05 14be 4ac7 3ebd 0f63 213e
00000100: beab b23c 117f 3c3c 2e95 90bc 83c1 2c3d
00000110: c109 d73c fbfb 8bbd 60df 9ebd c3a8 9abd
00000120: 7043 0dbd 0b2a 843d 1851 82bc 4bf3 443d
00000130: 5d43 9f3d 853a e33c 658f 46bd 64cf adbd
00000140: 4f10 0dbd 8fbd 363e 7ff4 143e 61d6 833d
00000150: e96f 8c3d cee2 7d3d a457 973d 7d92 42bc
00000160: 2a2c 2cbd d8cd c8bc e617 303e a253 043d
00000170: 5e50 763c a234 4e3c abb5 d63c 0726 5f3d
00000180: 4325 a5bd fb64 e5bd 6ef0 c63d 6e2d 9c3b
00000190: 00db 3a3e 8075 36bd aa51 0dbd f83c 763c
000001a0: aec4 583c 10c1 45be 9808 57be f843 be3b
000001b0: 4839 bbbc d722 953d 7429 bdba 39f7 86ba
000001c0: 3d7d a83d 8d57 663d 8b2a 8ebc da7b fcbd
000001d0: ae75 b8bc 2cfb 25bc 6b09 1e3d 4b8b 313d
000001e0: df54 063d a352 bc3c 200a c9ba 833f 78bd
000001f0: a8a2 c1bc f4f1 f63c f088 213d 36d2 923d
00000200: c06a c63c 23d6 863d a6e3 cc3d 5f87 773d
00000210: cd3c 1dbd 5822 47bd df5c 8abd b93d 88bd
00000220: 294c 42bd 7833 6ebd 435a 503d 4b32 9bbd
00000230: 78ce a6bd 6cd8 c23b bc7d 98bd 1582 ac3b
00000240: f28b bf3b 7032 81bb 6dd5 d3bb 63c0 46bd
00000250: 00eb 61bd 5ad9 ee3b b647 26be 2fbf 12bd
00000260: ea62 fe3c 5141 9cbd d9ca 46bd 2b09 a5bc
00000270: 2633 00be 0f99 e5bd 3221 95bd 6dd0 32be
00000280: cd11 ccbd 1672 66bb 2142 c23c ddb1 00bc
00000290: 6424 7f3c eced 1c3d 36f7 a23d d3d2 ff3c
000002a0: af57 4dbd 5288 5dbd e2c6 50be 29c4 b73c
000002b0: 8d9c a7bc 2b45 273d 3c70 0fbe a3cc 693d
000002c0: 178a 37bc b63a 1dbe 7080 34bd 036f dcbd
000002d0: a719 86bb 708a a5bc ef25 063d 5636 72bd
000002e0: ac04 a9bd 91af 9d3c b227 cbbd 2b41 3bbd
000002f0: 7579 03be eeb7 623c dd2a e5bd 0647 aebc
00000300: 51ba 97bd e9d0 a2bd a4d1 3cbd d592 c2bd
00000310: 2c15 07be f212 b7bd 08e8 be3c bbb7 90bd
00000320: e5ad c4bd 8ec2 2cbc 2f5a 03bd d327 36bd
00000330: 8d61 02be 397b b7bc 7b65 a4bd 35fe d6bc
00000340: f3b8 09bd aa2f 6dbd f387 e5bb 0be6 163d
00000350: c2b5 273d a257 9fbd 1ca7 73bd c310 adbd
00000360: 5fc8 943d 5f60 823d bccd 46bd 8f46 bdbb
00000370: 2dca c73c de60 d5bb ee06 75bd fba0 023d
00000380: 57ac 133d add1 5abc b237 353d bdb6 7bbd
00000390: 1e7e 533d bcd0 153d a63a 373d 6cc7 d7bd
000003a0: 2153 a5bd 1b5b 04bd bdcf 593a fd64 ec3c
000003b0: 8740 a0bd e305 18bd 2e6e 0dbc a1c0 b73c
000003c0: 058e 1cbe e1d0 d8bd 54b8 a4bc 30c0 423d
000003d0: 0d50 25bd b4c6 1fbb db1e d93c 3b68 a93c
000003e0: 796c ed3c ced5 953d 4c4e 08bd 9d10 37bd
000003f0: 63be 843d 9af9 b4bd 0b81 adbc 3a45 4d3d

conv.conv3d_3.bias f4 [64]
-0.11590319 -0.12560391 -0.06539814 -0.00170443 -0.054155547 -0.05737939 -0.064724654 -0.082760185
-0.17691211 0.073469505 -0.016972367 0.23386003 -0.07317209 -0.08497311 -0.08121731 -0.16496111
-0.069734156 -0.0019036694 -0.045473646 -0.09183475 -0.052903254 -0.03267322 -0.2019448 0.012161355
-0.024332086 -0.12935948 -0.04980696 -0.13650733 -0.030799994 -0.003132567 0.029579226 -0.05973753
-0.060499936 -0.122695476 -0.0020781565 -0.08776892 -0.15707791 -0.04396358 -0.017440159 -0.011106528
-0.1735483 0.07381272 -0.11727989 -0.02921468 0.023182025 -0.06924753 0.059794344 -0.14209463
0.07111048 0.2142491 -0.1077999 -0.12109757 0.15291975 0.07362976 -0.033772085 -0.07606238
0.17586628 0.04374573 0.05896409 0.14824027 -0.14268886 -0.022502609 0.046511207 -0.013949845
00000000: a75e edbd 509e 00be 76ef 85bd 2e67 dfba
00000010: 35d2 5dbd a706 6bbd 5c8e 84bd 2c7e a9bd
00000020: 7328 35be 2e77 963d a209 8bbc 0179 6f3e
00000030: 40db 95bd 6206 aebd 4355 a6bd 91eb 28be
00000040: c8d0 8ebd 8c84 f9ba 9342 3abd db13 bcbd
00000050: 15b1 58bd 5bd4 05bd 9eca 4ebe 6c40 473c
00000060: 1554 c7bc d076 04be 6202 4cbd 94c8 0bbe
00000070: 4550 fcbc c14b 4dbb 2250 f23c 57af 74bd
00000080: c8ce 77bd c447 fbbd ae31 08bb 31c0 b3bd
00000090: 08d9 20be 2813 34bd aade 8ebc 28f8 35bc
000000a0: a5b6 31be 202b 973d 7030 f0bd a053 efbc
000000b0: 3be8 bd3c a6d1 8dbd eaea 743d 4181 11be
000000c0: 5fa2 913d 1e64 5b3e 32c6 dcbd 0102 f8bd
000000d0: ff96 1c3e 33cb 963d 9954 0abd 98c6 9bbd
000000e0: 4a16 343e b92e 333d 5484 713d 4ccc 173e
000000f0: 071d 12be 6457 b8bc 8982 3e3d e48d 64bc

mlp.fc1.weight f4 [128, 512]
0.072133146 0.010975836 0.017776893 0.0913809 0.01762341 0.083652794 -0.03214347 -0.010724202
-0.10168199 -0.04593344 -0.06398614 -0.0448303 -0.027452592 -0.011940459 -0.15407497 0.030491939
-0.048872486 -0.06675795 -0.062390793 -0.028524466 0.028841091 0.010091391 0.0017017676 -0.056435302
0.054264415 0.040059004 0.035545394 0.008724589 -0.012149156 -0.035231024 0.15044431 -0.024281707
-0.11684706 0.0501992 -0.028435659 -0.018604763 -0.11789504 -0.03432235 -0.110359564 -0.07501612
-0.067732856 0.07896627 -0.06959543 0.07144855 0.1089993 0.08921027 -0.04657447 0.056354463
-0.02012192 0.11052689 -0.06590563 0.07493712 -0.046425622 0.06867577 -0.034205567 0.02647149
0.10058377 0.015055478 0.003951794 -0.029238362 0.029302374 -0.037979595 -0.023419572 -0.019712267
-0.02714095 0.0064493376 -0.052709483 -0.05674074 0.06332155 0.017660398 0.07190703 -0.02471319
-0.05902155 -0.02370091 -0.051239178 0.0064184545 -0.022444004 0.038531426 0.06782921 0.03212234
-0.017501969 0.0764253 -0.048470397 -0.06615388 0.046278663 0.07585904 -0.0064670104 -0.002657247
0.10433389 0.031145692 0.15341361 -0.067015104 0.045665152 -0.095423765 0.07518969 -0.07621952
-0.030006105 -0.061537832 -0.034219556 -0.044577554 0.0016420352 -0.106818244 -0.033077523 -0.07610362
0.09488838 -0.00046550736 0.09660865 0.07675274 0.04646449 0.01341343 -0.033304367 0.106709816
-0.04858985 0.05906123 -0.036693793 0.035429973 -0.032488357 0.027634464 -0.046873845 0.012386949
-0.017686399 0.030730302 -0.0057318853 0.030135756 -0.02543909 -0.009702187 -0.13713436 -0.037958987
-0.0011879758 -0.009783127 0.010128869 0.04958995 -0.020882145 -0.08158924 0.009086358 0.044582322
0.033694223 -0.11804982 -0.08059207 -0.075844154 -0.06502785 -0.10890549 0.0155118685 0.012665945
0.06080265 -0.005096206 0.101847894 0.06621361 0.0020412148 -0.029452175 -0.05241436 -0.0900368
-0.06266747 -0.05263029 -0.10466163 0.015117545 -0.08139293 0.060742795 0.0105078565 0.040083494
-0.025218988 -0.024907922 0.01675161 -0.068315655 0.030282035 0.016089704 -0.02161567 0.006968498
-0.07285894 -0.059119143 -0.028088324 -0.052968457 -0.012130483 -0.0014753297 -0.068221174 -0.055201497
0.012589598 -0.088167064 -0.05138312 -0.056625154 -0.062401306 -0.055174682 0.01973517 -0.0063028336
0.034804188 0.0472558 0.0033294605 0.025533726 0.05151905 0.008214353 -0.07595756 -0.03926609
0.0028624793 0.08616153 -0.10150106 -0.051235422 -0.0011787966 0.007750341 -0.028466962 -0.012989902
0.034899913 -0.040454254 0.016171154 -0.007043326 0.026027214 -0.020365428 -0.004079845 -0.050756693
-0.062302507 0.0039092237 0.04153757 0.011087936 -0.06359928 -0.013206864 -0.025453899 -0.03528169
-0.044871785 -0.046000175 0.00052960054 0.031117827 0.032944664 0.015172981 -0.070109196 -0.012114334
0.012576941 -0.1550785 -0.026513185 -0.12897144 -0.04580043 -0.12301879 -0.131168 -0.12931381
-0.10647753 -0.0034936424 -0.009264023 0.059233427 0.060680106 -0.04723441 -0.0047937725 0.03139905
-0.12545244 0.042443793 -0.07494803 -0.021041233 -0.08442321 -0.05332602 -0.05814938 -0.036203884
0.051265404 0.07319415 -0.02368812 0.12772836 0.13556927 0.01419732 -0.011646949 0.059702687
00000000: 8bba 933d fed3 333c d9a0 913c e925 bb3d
00000010: f85e 903c 2852 ab3d dfa8 03bd 90b4 2fbc
00000020: a63e d0bd b424 3cbd 2a0b 83bd fa9f 37bd
00000030: 42e4 e0bc eaa1 43bc d4c5 1dbe 3bca f93c
00000040: 842e 48bd 64b8 88bd 7d8d 7fbd 24ac e9bc
00000050: 2744 ec3c 5d56 253c d80d df3a b428 67bd
00000060: 5d44 5e3d e914 243d 0c98 113d 94f1 0e3c
00000070: 410d 47bc 684e 10bd 130e 1a3e 6eea c6bc
00000080: 834d efbd ad9d 4d3d e6f1 e8bc 0469 98bc
00000090: f472 f1bd 9895 0cbd 3204 e2bd 0da2 99bd
000000a0: 86b7 8abd 11b9 a13d 0c88 8ebd 9e53 923d
000000b0: 063b df3d e0b3 b63d dfc4 3ebd f0d3 663d
000000c0: bad6 a4bc ec5b e23d 88f9 86bd a278 993d
000000d0: cb28 3ebd e2a5 8c3d 231b 0cbd bdda d83c
000000e0: ddfe cd3d 40ab 763c 0d7e 813b 4a85 efbc
000000f0: 880b f03c 7e90 1bbd 67da bfbc 9f7b a1bc
00000100: b356 debc f754 d33b e6e5 57bd fa68 68bd
00000110: bbae 813d 8aac 903c fe43 933d 5173 cabc
00000120: 95c0 71bd 6928 c2bc 2ce0 51bd e651 d23b
00000130: 7ddc b7bc 21d3 1d3d 0aea 8a3d b792 033d
00000140: 4a60 8fbc de84 9c3d e588 46bd af7b 87bd
00000150: b28e 3d3d fc5b 9b3d 37e9 d3bb 3525 2ebb
00000160: 02ad d53d 4025 ff3c 7518 1d3e 373f 89bd
00000170: 620b 3b3d 896d c3bd 0dfd 993d fb18 9cbd
00000180: 5dcf f5bc 180f 7cbd ce29 0cbd f496 36bd
00000190: 8f39 d73a 86c3 dabd 4c7c 07bd 37dc 9bbd
000001a0: d754 c23d 570f f4b9 c2da c53d 8a30 9d3d
000001b0: 8d51 3e3d 01c4 5b3c 296a 08bd ad8a da3d
000001c0: 2706 47bd 30ea 713d 3b4c 16bd 051f 113d
000001d0: 8312 05bd ac61 e23c cafe 3fbd a1f2 4a3c
000001e0: 11e3 90bc 1dbe fb3c 8ad2 bbbb 43df f63c
000001f0: a365 d0bc ecf5 1ebc f36c 0cbe e27a 1bbd
00000200: dab5 9bba 6949 20bc 8ef3 253c d51e 4b3d
00000210: 0811 abbc 4218 a7bd f3de 143c f49b 363d
00000220: f402 0a3d 1bc4 f1bd 750d a5bd 2e54 9bbd
00000230: 522d 85bd d709 dfbd 7e25 7e3c d384 4f3c
00000240: 330c 793d 13fe a6bb a195 d03d 009b 873d
00000250: e7c5 053b b045 f1bc 71b0 56bd 3765 b8bd
00000260: cd57 80bd dc92 57bd d658 d6bd 94af 773c
00000270: 56b1 a6bd 70cd 783d 2529 2c3c 972e 243d
00000280: 0d98 cebc b30b ccbc ac3a 893c 14e9 8bbd
00000290: 0812 f83c 8ece 833c 5813 b1bc 0058 e43b
000002a0: 1137 95bd ea26 72bd 7c19 e6bc 74f5 58bd
000002b0: efbe 46bc da5f c1ba 8bb7 8bbd f71a 62bd
000002c0: 9a44 4e3c ef90 b4bd 1b77 52bd c7ef 67bd
000002d0: 8398 7fbd d9fe 61bd a7ab a13c 0088 cebb
000002e0: d68e 0e3d 4c8f 413d 1433 5a3b 1b2c d13c
000002f0: a405 533d 7e95 063c a38f 9bbd 7bd5 20bd
00000300: 6f98 3b3b 7575 b03d cadf cfbd 3cdc 51bd
00000310: da81 9aba 93f6 fd3b 8c33 e9bc 99d3 54bc
00000320: 36f3 0e3d 5cb3 25bd 5e79 843c b3cb e6bb
00000330: 0637 d53c 66d5 a6bc 38b0 85bb 40e6 4fbd
00000340: ea30 7fbd f218 803b 4d23 2a3d 2daa 353c
00000350: 5740 82bd 9a61 58bc b284 d0bc 8983 10bd
00000360: 7acb 37bd ae6a 3cbd e4d4 0a3a d0ea fe3c
00000370: fcf0 063d 1898 783c 6995 8fbd 337b 46bc
00000380: 840f 4e3c e6cc 1ebe 2e32 d9bc 1711 04be
00000390: 3b99 3bbd 46f1 fbbd e750 06be d76a 04be
000003a0: e410 dabd 98f5 64bb 21c8 17bc c09e 723d
000003b0: b48b 783d de78 41bd 1415 9dbb 4a9c 003d
000003c0: 9b76 00be 8bd9 2d3d 5a7e 99bd aa5e acbc
000003d0: 13e6 acbd 626c 5abd 0b2e 6ebd 864a 14bd
000003e0: acfb 513d d1e6 953d 970d c2bc 39cb 023e
000003f0: acd2 0a3e e09b 683c d8d2 3ebc ce8a 743d

mlp.fc1.bias f4 [128]
-0.1549811 0.18762062 -0.01917466 0.073690936 0.18584791 0.0708813 0.029090127 0.009907445
-0.070978425 -0.0917895 -0.028612537 -0.07272705 0.029176487 -0.030557893 0.02792483 -0.16837835
-0.042736776 -0.08373955 0.27477232 0.0845145 -0.029254295 0.1283598 0.24876013 0.100783944
0.069408484 -0.037783124 0.20885907 -0.045693696 -0.013920781 0.046401277 0.004791167 0.073835686
-0.07378207 0.21207425 0.15346321 0.06539171 0.10867073 0.29869628 0.04872608 -0.12581873
-0.14756307 -0.041961327 0.17802896 0.18088925 0.20840219 -0.03540642 -0.00018416072 0.16613832
0.13257176 0.044230208 -0.12454388 0.10970845 -0.046897862 0.023872254 -0.045325384 0.25551316
0.10214298 -0.14349103 0.048904087 0.012676745 -0.0404819 0.18294519 0.14542675 -0.011356188
0.039628778 0.0058485307 0.2415844 -0.098142676 0.084490955 0.101475164 -0.045521963 0.32156926
0.14996915 0.02682793 0.0644855 0.031233117 0.25567532 -0.061949663 -0.12946096 -0.02771466
0.007287165 0.021613024 0.08744984 -0.052998427 0.009927921 -0.0020667892 0.12252379 0.04865265
-0.12086435 0.24096291 0.038212348 0.096281655 0.20427762 0.18377244 0.06761805 -0.13901685
0.015324024 0.07341567 -0.062418405 -0.020888658 0.12345308 0.23203404 0.09071615 0.0026818926
-0.08930419 0.06559018 -0.031264503 0.22995807 -0.06349916 0.17783932 -0.13043074 -0.12683852
0.029655248 -0.04054957 -0.08726295 0.10072366 0.07206884 0.15721302 0.09615988 -0.061931692
0.21984237 -0.04027518 -0.079336196 0.07018537 0.0006458136 -0.030343318 -0.09826825 -0.012667002
00000000: 5eb3 1ebe 9f1f 403e 2d14 9dbc 46eb 963d
00000010: ea4e 3e3e 372a 913d 6b4e ee3c d652 223c
00000020: 235d 91bd 22fc bbbd d764 eabc ebf1 94bd
00000030: 8703 ef3c 8c54 fabc 9dc2 e43c 606b 2cbe
00000040: c20c 2fbd a47f abbd f5ae 8c3e f015 ad3d
00000050: b4a6 efbc c070 033e faba 7e3e d067 ce3d
00000060: 0926 8e3d 7ac2 1abd 27df 553e 5029 3bbd
00000070: fd13 64bc 440f 3e3d 39ff 9c3b 2a37 973d
00000080: 0e1b 97bd fe29 593e 7625 1d3e 17ec 853d
00000090: c28e de3d b8ee 983e 0095 473d a0d6 00be
000000a0: c61a 17be a4df 2bbd 394d 363e 083b 393e
000000b0: 6267 553e 5206 11bd 441b 41b9 2a20 2a3e
000000c0: e4c0 073e bc2a 353d dd10 ffbd d3ae e03d
000000d0: f917 40bd bf8f c33c 1ca7 39bd 9fd2 823e
000000e0: 5730 d13d 50ef 12be a74f 483d 1fb2 4f3c
000000f0: 59d0 25bd fc55 3b3e c0ea 143e 4e0f 3abc
00000100: c951 223d 08a5 bf3b e761 773e 07ff c8bd
00000110: 9809 ad3d 36d2 cf3d 3d75 3abd baa4 a43e
00000120: 8391 193e 3fc6 db3c f910 843d 98dc ff3c
00000130: e0e7 823e eebe 7dbd 6a91 04be db09 e3bc
00000140: 2cc9 ee3b cc0d b13c e718 b33d e114 59bd
00000150: b8a8 223c f872 07bb c1ed fa3d 0048 473d
00000160: ba87 f7bd fbbe 763e 8d84 1c3d 512f c53d
00000170: 272e 513e d82e 3c3e 557b 8a3d 6f5a 0ebe
00000180: 9d11 7b3c f45a 963d 71aa 7fbd b11e abbc
00000190: f8d4 fc3d 559a 6d3e 64c9 b93d b1c2 2f3b
000001a0: 1de5 b6bd 2554 863d 350f 00bd 217a 6b3e
000001b0: d90b 82bd 831b 363e a38f 05be f5e1 01be
000001c0: 90ef f23c 4e17 26bd ebb6 b2bd 3548 ce3d
000001d0: d498 933d 73fc 203e 79ef c43d 16ac 7dbd
000001e0: 5c1e 613e 96f7 24bd 047b a2bd 59bd 8f3d
000001f0: d14b 293a 8d92 f8bc dd40 c9bd 4289 4fbc

mlp.fc2.weight f4 [40, 128]
0.054793347 -0.09680702 0.110126585 -0.06717957 -0.070873015 -0.19780172 -0.050590843 -0.13621427
-0.291637 -0.095794484 -0.13765007 0.13188693 0.047727652 0.072844684 0.06009431 -0.036525145
0.09321099 -0.055104263 -0.051090643 -0.21047148 -0.12047452 0.08635165 -0.19120298 0.10088309
0.087449916 0.021491582 -0.10732803 -0.066278405 -0.08262557 0.05959449 0.075529575 -0.09342798
-0.12995353 0.008669764 0.014301583 -0.13697287 -0.030987922 -0.24272287 -0.045170765 0.020302769
-0.13881187 -0.07884852 0.06375294 -0.058011055 -0.16887385 0.0275502 -0.12147248 -0.0879155
0.08782352 -0.0052957796 0.09869048 -0.064841844 0.026194336 -0.15508018 -0.057125814 -0.23964259
-0.07732819 -0.206448 -0.095995255 0.11461005 -0.12803377 0.09974946 0.05674853 -0.17428896
-0.09536143 -0.0034399442 -0.055194795 -0.076543376 -0.018023957 -0.1502306 -0.12390325 -0.27825108
-0.22184154 0.044885267 -0.18082502 -0.04655852 0.041244034 0.09929988 0.054199617 0.014559505
0.0066581313 -0.11591421 0.1104824 0.013700412 -0.12118024 -0.17587651 -0.17595777 0.07746411
0.13795865 -0.24343058 0.10296605 0.06824362 -0.036140397 -0.011043757 0.016404245 -0.0034223096
-0.011767022 -0.005123489 0.025748376 -0.11159908 -0.16186501 -0.19079788 0.09626658 -0.17833094
0.094265826 0.05145297 -0.09500075 0.062750496 -0.112235814 0.0426625 0.07646778 -0.04359651
0.06577757 -0.20220368 -0.22515674 -0.123154536 0.09517226 -0.027018756 0.01912492 -0.122221164
-0.1181607 0.10246027 -0.0558688 0.019800909 -0.15574183 0.022109881 -0.120770656 0.020777527
-0.12424314 -0.23013738 -0.006586804 -0.13414189 -0.13928941 -0.04776107 -0.094597064 -0.0904228
-0.11455696 -0.082668774 -0.12819384 -0.03132488 -0.23971353 -0.07910726 -0.15874442 -0.102885015
-0.03906765 -0.07595456 -0.17413986 -0.03340498 -0.14088574 -0.10811678 -0.29881975 -0.31752133
-0.11171386 -0.0581377 -0.20350985 -0.19927157 -0.11866419 -0.28936988 -0.15712316 -0.20060638
-0.081874475 -0.33362967 -0.19418724 -0.12453421 -0.09410996 -0.28874514 -0.119051225 -0.19776274
-0.026015742 -0.039274994 -0.1575259 -0.12916026 -0.06723852 -0.14703478 -0.16419518 -0.15058848
-0.3616488 -0.17391679 -0.1227661 -0.05325806 -0.13072927 -0.03972239 -0.057628453 -0.36898845
-0.06273795 -0.1143889 -0.07878812 -0.17249136 -0.11562487 -0.3274032 -0.16896565 -0.12758842
-0.1962199 -0.11238118 -0.30098996 -0.11046627 -0.059122548 -0.066495284 -0.07418744 -0.35510755
-0.090605326 -0.0732537 -0.08663085 -0.08734769 -0.06706767 -0.08614643 -0.06522956 -0.12207578
-0.11804963 -0.07776884 -0.06204498 -0.11347189 -0.08887289 -0.043236688 -0.18065785 -0.094035015
-0.04809218 -0.32425618 -0.16236144 -0.26324603 -0.26158512 -0.31889 -0.21523705 -0.11240016
-0.13554674 -0.17833854 -0.08889842 -0.13580441 -0.16056071 -0.29560852 -0.28968096 -0.09741997
-0.0910929 -0.19489895 -0.07035309 -0.3431167 -0.119143635 -0.26927635 -0.1750383 -0.10706823
-0.16627766 -0.08435541 -0.14207593 -0.2644603 -0.16563219 -0.07464429 -0.17643395 -0.09430588
-0.27473947 -0.049666785 -0.04338936 -0.12749831 -0.104857065 -0.014623422 -0.06768386 -0.101705045
00000000: fd6e 603d c242 c6bd 0c8a e13d 7195 89bd
00000010: df25 91bd 898c 4abe 5838 4fbd c17b 0bbe
00000020: 7251 95be e62f c4bd 24f4 0cbe 5e0d 073e
00000030: 127e 433d 982f 953d 7425 763d 649b 15bd
00000040: 67e5 be3d 02b5 61bd 6c44 51bd d685 57be
00000050: 58bb f6bd 22d9 b03d b7ca 43be cb9b ce3d
00000060: f118 b33d 1d0f b03c ccce dbbd f9bc 87bd
00000070: 9837 a9bd 5a19 743d 40af 9a3d 2b57 bfbd
00000080: 8a12 05be a00b 0e3c 3051 6a3c 9e42 0cbe
00000090: 62da fdbc 588c 78be fb04 39bd fe51 a63c
000000a0: b324 0ebe 557b a1bd e790 823d 009d 6dbd
000000b0: 44ed 2cbe f5b0 e13c 90c6 f8bd 0b0d b4bd
000000c0: d1dc b33d 3888 adbb 3c1e ca3d cdcb 84bd
000000d0: 8195 d63c 57cd 1ebe c2fc 69bd de64 75be
000000e0: 3e5e 9ebd 1b67 53be 2999 c4bd adb8 ea3d
000000f0: 491b 03be 7249 cc3d 2671 683d ce78 32be
00000100: da4c c3bd b070 61bb f013 62bd c6c2 9cbd
00000110: faa6 93bc 0dd6 19be fdc0 fdbd ed76 8ebe
00000120: 6e2a 63be 9dd9 373d 322a 39be 26b4 3ebd
00000130: 81ef 283d bc5d cb3d 6b00 5e3d fd8a 6e3c
00000140: 742c da3b 6e64 edbd 9944 e23d b177 603c
00000150: 582d f8bd f918 34be 462e 34be 81a5 9e3d
00000160: 0845 0d3e de45 79be dddf d23d 50c3 8b3d
00000170: f407 14bd e0f0 34bc 3262 863c d448 60bb
00000180: 78ca 40bc f1e2 a7bb 42ee d23c 0f8e e4bd
00000190: f1bf 25be 8560 43be 6a27 c53d 639c 36be
000001a0: 710e c13d 59c0 523d c18f c2bd 5583 803d
000001b0: e4db e5bd e0be 2e3d 249b 9c3d 4192 32bd
000001c0: 64b6 863d 7b0e 4fbe 7d8f 66be 7238 fcbd
000001d0: ade9 c23d 7056 ddbc ddab 9c3c 174f fabd
000001e0: 3dfe f1bd b1d6 d13d afd6 64bd 8435 a23c
000001f0: c97a 1fbe c81f b53c 9b56 f7bd a235 aa3c
00000200: 3073 febd 22a9 6bbe 1ed6 d7bb 7e5c 09be
00000210: e2a1 0ebe 1da1 43bd 1bbc c1bd 972f b9bd
00000220: d79c eabd 3f4e a9bd 3f45 03be 844e 00bd
00000230: 7777 75be fd02 a2bd e68d 22be 61b5 d2bd
00000240: 6605 20bd 108e 9bbd b851 32be a9d3 08bd
00000250: 5a44 10be 556c ddbd e7fe 98be 2892 a2be
00000260: 3cca e4bd cc21 6ebd e364 50be d90d 4cbe
00000270: 3606 f3bd 4a28 94be e5e4 20be c26b 4dbe
00000280: cead a7bd 82d1 aabe 05d9 46be cb0b ffbd
00000290: b9bc c0bd 67d6 93be 21d1 f3bd 5182 4abe
000002a0: f71e d5bc d1de 20bd 784e 21be 9642 04be
000002b0: 59b4 89bd 4990 16be c822 28be de33 1abe
000002c0: 082a b9be 3e17 32be cb6c fbbd 2025 5abd
000002d0: e5dd 05be f2b3 22bd d00b 6cbd 0eec bcbe
000002e0: c17c 80bd ba44 eabd aa5b a1bd 93a1 30be
000002f0: bbcc ecbd 64a1 a7be 5505 2dbe 8aa6 02be
00000300: dfed 48be 1b28 e6bd 5b1b 9abe 243c e2bd
00000310: 7c2a 72bd ae2e 88bd 96ef 97bd a8d0 b5be
00000320: 498f b9bd 0906 96bd 846b b1bd 58e3 b2bd
00000330: c65a 89bd 8a6d b0bd 1397 85bd de02 fabd
00000340: 01c4 f1bd 4545 9fbd e022 7ebd f363 e8bd
00000350: fd02 b6bd f418 31bd 5ffe 38be 6e95 c0bd
00000360: 4efc 44bd e804 a6be 1442 26be 2fc8 86be
00000370: 7cee 85be 8d45 a3be 1a67 5cbe 0e32 e6bd
00000380: c4cc 0abe 619e 36be 6010 b6bd 5010 0bbe
00000390: 076a 24be 005a 97be 1051 94be 1f84 c7bd
000003a0: ea8e babd 9793 47be 4815 90bd feac afbe
000003b0: 9401 f4bd 97de 89be 3d3d 33be 9746 dbbd
000003c0: b144 2abe 87c2 acbd 5a7c 11be 5767 87be
000003d0: 7c9b 29be 1bdf 98bd 1aab 34be 7123 c1bd
000003e0: a7aa 8cbe 666f 4bbd 0bb9 31bd eb8e 02be
000003f0: 4dbf d6bd 1497 6fbc d69d 8abd bc4a d0bd

mlp.fc2.bias f4 [40]
-0.17195462 -0.29428685 -0.01405701 0.059006803 -0.06560301 -0.14427479 -0.08821372 -0.10001385
-0.08154444 0.17486545 -0.15806936 0.31551206 -0.39592212 0.16677676 -0.39681044 -0.30207705
-0.39518854 0.12024965 0.12071647 0.090292 -0.03363815 -0.21070616 -0.2768018 -0.29934996
-0.00027914045 0.1565935 0.29966635 -0.1643185 -0.39405453 0.09984316 -0.35885215 0.1133828
-0.09205797 -0.37252504 0.0760504 -0.3736854 -0.35721764 -0.3801109 -0.3440468 -0.38964158
00000000: df14 30be c4ac 96be 604f 66bc 1eb1 713d
00000010: df5a 86bd c5bc 13be 65a9 b4bd 10d4 ccbd
00000020: c500 a7bd ee0f 333e efdc 21be cc8a a13e
00000030: 4eb6 cabe 87c7 2a3e bd2a cbbe d8a9 9abe
00000040: 2756 cabe 7345 f63d 323a f73d 03eb b83d
00000050: 28c8 09bd 5bc3 57be f7b8 8dbe 6644 99be
00000060: 9959 92b9 0c5a 203e de6d 993e 1c43 28be
00000070: 84c1 c9be 927a cc3d 78bb b7be 3e35 e83d
00000080: e488 bcbd 9abb bebe 50c0 9b3d b153 bfbe
00000090: 3be5 b6be e59d c2be e726 b0be 1a7f c7be
